…
this causes reported validation loss/metrics to be artificially high since we are training on samples that should have been withheld.
when converting a pb model file (that includes batchnorm layers) to tflite, the resulting tflite graph continues to contain batchnorm layers in the form of mul and add ops.
i have the following issue when importing tensorflow in python3 since some days ago: phofcode
tensorflow can build graph successfully, but when it comes to flow the data into model and update parameters, it always gives the segmentation fault error.
the error is as the following.
(float32_ref 256) [256, bytes: 1024] (float32_ref 1) [1, bytes: 4] (float32_ref bytes: (float32_ref 128) [128, bytes: 512] 128) [128, 512] 128) [128, 512] [73728, 64) [64, 256] 64) [64, 256] 64) [64, 256] 3x3x64x3) [1728, 6912] 3) [3, 12] total size of variables: total bytes of variables: [*] reading checkpoints... [*] failed to find a checkpoint [!]
load failed... segmentation fault (core dumped)
i 'm using api and trying to make it work in a distributed environment.
according to the doc, the configuration should be simple: set correct tf_config and pass the distributestrategy.
i have 1chief, 2worker, 1ps, 1evaluator, the training starts with no error, everything seems right, but training does not stop correctly.
…
